HW4 - reinforcement Learning/Tables/DQN.pt (torch, 9559 bytes, 6 tensors)

fc1.weight f4 [32, 4]
000000 c8 0f dd 3d 13 2f 2a be 5b f8 db bf e1 07 27 bf
       0.10794026 -0.1661952 -1.7185167 -0.652464
000010 85 01 d9 bd db 68 de 3d a3 7e 4b 3e b4 5d 89 3c
       -0.10595993 0.10859843 0.19872527 0.016768314
000020 db 6b 8b 3e 66 13 a5 3c 56 7c 00 be 92 b0 90 be
       0.27230725 0.020150851 -0.1254743 -0.28259712
000030 e9 0d 42 3f 67 e4 c0 be 30 8d 95 be 38 19 ba be
       0.75802475 -0.37674257 -0.2920928 -0.36347365
000040 ca b8 b7 3e 04 ed 1b 3e 27 bb 9c 3f fe 2e d7 3e
       0.3588317 0.15227133 1.2244614 0.4202804
000050 4a f1 0c be 3e 99 ca be bf 1c ce bd 9a d5 17 bd
       -0.1376392 -0.3957004 -0.10064077 -0.03706894
000060 41 2d 35 bf 62 3d 19 3d c1 f9 6d bf 6c 4a 0e 3d
       -0.70772177 0.037412055 -0.9295922 0.034738943
000070 d4 db 9a 3d 81 7c 68 be ca b5 3a be 78 32 88 be
       0.0756146 -0.22703744 -0.1823341 -0.26601005
000080 7d b9 ef 3e f7 fd 40 bc 4c cb 9b be 5d 07 b3 3c
       0.46821204 -0.0117793 -0.3042854 0.021854097
000090 f9 73 82 bd be 27 c9 3e c5 53 7d 3d ed df b5 3e
       -0.06369776 0.39288133 0.061847467 0.35522404
0000a0 b0 6d 05 bf a1 18 f8 3e ad 8b 82 3f b5 f9 61 bc
       -0.52120495 0.4845629 1.0198876 -0.013792445
0000b0 b0 d5 c3 3d a0 e6 85 3d 44 ca f6 3e 08 3b a4 bd
       0.09562242 0.06538129 0.4820119 -0.08019072
0000c0 d9 14 ab 3f 9d 91 a7 3e 27 99 ce be 8e 15 3b 3d
       1.3365737 0.32728282 -0.4035122 0.045674853
0000d0 1a 28 60 be 5b c0 87 bc 7d 15 29 3f 6a 51 ad 3e
       -0.21890298 -0.016571214 0.66048414 0.33851177
0000e0 ae 2c 5b 3d d2 e1 df 3e 07 88 af 3f 44 fa 25 3f
       0.053509407 0.43726975 1.3713387 0.64835
0000f0 77 0f fd 3e af 11 9f be cd 36 20 be 18 db 1a 3d
       0.4942586 -0.3106818 -0.15645905 0.0378066
000100 bf ad f0 3d 4b de 24 bd 94 eb da bd ae 61 9b bd
       0.117518894 -0.040251058 -0.10689464 -0.0758699
000110 03 6f 23 3f 1d b3 8f bd a8 88 c0 3e 4a 3d 49 3d
       0.63841265 -0.07016585 0.3760426 0.049130715
000120 6e 9c 08 bf de b7 1b bf 17 cd 07 c0 4e 24 07 bf
       -0.5336369 -0.60827434 -2.1218927 -0.5278977
000130 32 dc e5 3e d3 ed 67 be 61 a1 36 be b1 5d 84 3d
       0.44894558 -0.22649316 -0.17834999 0.06463183
000140 bb aa d6 bd 85 1b 5b 3e 98 48 b2 be d0 a7 8f 3e
       -0.10481783 0.21397217 -0.3482101 0.28057718
000150 8c 1e 61 3f 80 7d d4 3d 8e cd c0 3f 72 5b a0 3e
       0.87937236 0.103755 1.506273 0.31319767
000160 2e 9a 92 bf 1d 84 b1 be 98 59 47 bf 49 71 51 3e
       -1.1453302 -0.34671107 -0.77871084 0.20453371
000170 da 88 da 3e 6a f0 f1 be c5 d2 42 bd 60 7f 9a bd
       0.42682534 -0.47253734 -0.047564287 -0.07543826
000180 c9 70 ac 3f 20 a4 79 3e 83 75 da 3e 24 d7 89 be
       1.3471919 0.24379015 0.4266778 -0.26921952
000190 c7 77 c5 3d 2d d6 33 3e 5a e3 ab be e6 87 b2 3e
       0.09641986 0.1756217 -0.33571893 0.34869307
0001a0 40 78 5e 3e 76 15 a8 be 2e 25 d5 bc 2c c2 8d be
       0.21725559 -0.32828873 -0.026018705 -0.27687204
0001b0 dc ff 60 be 92 f3 c1 bd af 91 aa be 05 d6 63 3e
       -0.21972603 -0.094702855 -0.33314273 0.2224961
0001c0 07 66 1e 3f bb cc 3e 3e cb 05 95 3e fc 11 47 3d
       0.6187443 0.18632786 0.29105982 0.048601136
0001d0 95 64 f5 3e a3 1a 18 3e be 44 aa be d4 1f a5 3d
       0.479283 0.14853911 -0.3325557 0.08062711
0001e0 8f 24 e8 be c2 64 f1 3e dd e4 40 3e bf 3e ce 3e
       -0.45340392 0.47147185 0.18837304 0.40282246
0001f0 f5 83 87 bc 44 36 da be b7 af 28 3f 23 7b e6 3e
       -0.016542414 -0.42619526 0.6589312 0.4501582

fc1.bias f4 [32]
000000 37 65 0c bd 04 e5 02 3f 0c 2c b9 be 18 d4 21 3e
       -0.034276213 0.511307 -0.36166418 0.15803564
000010 37 7b 03 be 65 6d 15 3f ef 26 77 bc 5e 73 3f 3f
       -0.12839971 0.5837005 -0.015084966 0.7478541
000020 27 4d 41 3f b3 88 36 3f 2d 7b f2 3e d2 3e be be
       0.7550835 0.71302336 0.473596 -0.37157303
000030 d3 8c 3a be 71 a6 50 3e 62 b1 9f 3e 22 a2 57 3f
       -0.18217783 0.20375992 0.3119002 0.8423177
000040 66 c4 0d 3f cd f3 4f 3f 6e 3e b6 bd 6c c8 3d 3f
       0.55377805 0.81231385 -0.08898626 0.74133945
000050 f7 9c c4 3e fb 00 74 3e 8d d6 68 be d2 6b d3 3e
       0.38401005 0.23828499 -0.22738095 0.41293198
000060 0e ef 0d bd d7 9b 41 3f 85 cd 17 3f b2 72 26 3f
       -0.03465181 0.7562842 0.5929797 0.6501876
000070 50 e0 f7 3e 3b c9 fe 3e 4d 14 5c be e6 2e 5a bd
       0.48413324 0.49762902 -0.21492119 -0.053267382

fc2.weight f4 [50, 32]
000000 19 ac ad be 25 75 c8 3e 50 b4 17 3d cd 29 1e bf
       -0.33920363 0.39151874 0.037037194 -0.6178253
000010 45 7a 04 bf 6b c9 ea 3d da 82 81 be d5 a2 16 3f
       -0.5174907 0.11464199 -0.25295144 0.5884221
000020 96 d6 ca 3e 60 fd bb 3e b1 68 d5 3e d3 18 00 3e
       0.3961684 0.36716747 0.41681436 0.1250947
000030 a5 f8 07 bf 82 f1 b0 3c 2c 77 cf be fc 75 90 3e
       -0.53113776 0.021599535 -0.40520608 0.28215015
000040 9e 39 2f 3f 8d 8d bd 3e 90 71 30 bf a7 7c 9c 3e
       0.6844729 0.37022057 -0.6892328 0.30563852
000050 a9 ef 48 3d 10 b6 f4 be 33 b1 80 be 7f 28 9b 3e
       0.049056683 -0.47795153 -0.25135192 0.30304334
000060 09 ed 0a be c2 31 53 3e 73 00 1a 3f 10 0b b0 3e
       -0.13566984 0.2062445 0.60156935 0.3438344
000070 82 83 f6 3e f8 0a 01 3f 43 0d 69 bf 36 dd 2f be
       0.48147207 0.5040736 -0.9103586 -0.17174229
000080 62 da f4 be 06 71 92 3e 3c c7 4d 3e 50 26 e5 be
       -0.47822863 0.28601855 0.20095533 -0.44755793
000090 28 91 ac be e6 7b 5e 3e 79 aa 2a be ce 9c d4 3e
       -0.33704495 0.21726951 -0.16666593 0.41525882
0000a0 2e a4 71 3e 08 a1 b3 3e 67 21 23 3f 9a 72 1d be
       0.23597786 0.35083795 0.6372284 -0.15375748
0000b0 52 06 02 bf 27 0f f8 3c 4d 9d a6 be 13 df ac 3e
       -0.50790894 0.030280663 -0.32541886 0.33763942
0000c0 a5 0b db 3e 45 43 dc 3e 0e 03 2d bf fb 2d f1 3e
       0.42782322 0.43020073 -0.67582786 0.47105393
0000d0 4d 54 a1 3d a2 3f cb be 30 89 c1 be e3 a0 d3 3d
       0.07877407 -0.39696985 -0.37799978 0.10333421
0000e0 6f 7c b9 be e3 87 42 3e b8 a4 f8 3e 7a 59 c5 3e
       -0.36227748 0.18997149 0.4856317 0.38544828
0000f0 cd db ff 3e af d4 17 3f ee fb 70 bf 2d a0 81 3a
       0.49972382 0.59308904 -0.94134414 0.0009889655
000100 43 6f 9c be c3 7c ee 3e 7d ce 02 be 19 75 30 bf
       -0.30553636 0.4657956 -0.12774082 -0.68928677
000110 53 b0 0e bf 8c cb dc 3e 07 16 99 be e3 13 cd 3e
       -0.557378 0.43124044 -0.29899618 0.40054235
000120 97 b7 02 3f 31 e0 24 3e 0d 54 14 3f 30 c6 02 bd
       0.51061386 0.16101147 0.5794075 -0.031927288
000130 82 22 de be 67 44 b7 ba 4d e9 a3 be 40 0d bc 3e
       -0.43385702 -0.0013982177 -0.32013932 0.3672886
000140 d8 93 27 3f 3b cb 2b 3e c3 fe 4b bf 60 c7 26 3e
       0.65459967 0.16776745 -0.7968561 0.16286993
000150 73 7c e0 3d 69 c1 dd be fe 99 40 be bd 30 a0 3e
       0.10961237 -0.43311623 -0.18808743 0.31287184
000160 31 25 dd be bf 58 95 3e 81 6c 15 3f 1e d0 93 3e
       -0.43192437 0.2916927 0.5836869 0.28869718
000170 49 5b a8 3e ee c1 9f 3e 7b 37 75 bf 85 7f d9 3d
       0.32882145 0.31202644 -0.9578778 0.106200255
000180 e0 85 e3 be e3 d2 60 3e 95 af d8 3d 76 82 fe be
       -0.44438076 0.21955447 0.105803646 -0.4970891
000190 e2 09 0d bf c7 90 9d 3e a4 4f 91 be 6a 71 e9 3e
       -0.55093205 0.3077452 -0.28381073 0.4559434
0001a0 59 59 dd 3e f1 6b 91 3e a1 fd 1b 3f 2b 16 04 3e
       0.4323223 0.28402665 0.6093388 0.12899081
0001b0 e6 95 13 bf 37 af 54 bd 1c ee 25 bf df 95 0b 3e
       -0.576506 -0.05192491 -0.6481645 0.1363139
0001c0 e4 77 d3 3e c0 7e 93 3e 96 77 33 bf ca c7 6d 3e
       0.41302407 0.2880764 -0.7010435 0.23220745
0001d0 2f ea 78 3e df 91 d2 be 50 15 9e be 57 c0 52 3e
       0.24308084 -0.41126916 -0.30875635 0.20581184
0001e0 8e 5d 91 be 2a 5d 85 3d b3 21 a2 3e 9b fa 93 3d
       -0.2839169 0.0651191 0.31666335 0.072255336
0001f0 0c 61 c1 3e d8 01 ba 3e 8b 6b 6b bf 5f d5 1a bc
       0.37769353 0.36329532 -0.9196097 -0.009450286
000200 46 c5 b4 bf 6e fa 17 bd 90 0c 44 be 9a af 07 bf
       -1.4122703 -0.037104063 -0.19145417 -0.5300232
000210 47 2a 1f 3e 54 66 4d 3d 0e a8 b2 3e d0 f6 41 3c
       0.15543471 0.050146416 0.3489384 0.01183863
000220 90 36 4a 3e 53 00 91 3e df 17 ab 3e 50 5d 5a 3d
       0.19747376 0.2832056 0.3341665 0.053311646
000230 cc 8d 70 3e 31 9a 09 3e bc 06 d2 3e fa 11 c7 3d
       0.23491591 0.13437726 0.41020763 0.09720226
000240 98 ac 70 be 1c a4 92 3e 5d d4 bd bf 5f f5 15 3e
       -0.2350334 0.2864083 -1.4830433 0.14644383
000250 d8 5b a7 3e 5b 84 e8 3d 4a 38 87 be c6 da 3e 3d
       0.3268726 0.1135337 -0.26410133 0.046595357
000260 7e 68 21 be e2 53 ab 3e 51 0d 19 be 30 e6 bd ba
       -0.15762517 0.33462435 -0.14946486 -0.0014488157
000270 cf 1f 83 bd a2 7e 71 3d 96 0b b9 3e 2e 8e ad be
       -0.064025514 0.058958657 0.36141652 -0.33897537
000280 c7 d9 23 be 28 c0 73 3d 1a b8 b2 3d c0 8c d2 bb
       -0.16001044 0.059509426 0.08726521 -0.00642547
000290 f9 42 19 3e 08 20 c5 bc 90 36 5a 3d 10 97 22 be
       0.14966954 -0.024063125 0.05327469 -0.15877938
0002a0 a4 38 1f 3d 10 f3 1b be b0 60 a0 bc 90 2b c4 bc
       0.038872376 -0.1522944 -0.019577354 -0.023946553
0002b0 49 49 e1 bd 30 8a ee bc 80 98 bf 3a 7a 7d b9 3d
       -0.11000306 -0.029118627 0.0014617592 0.09057136
0002c0 e6 17 bc 3d e0 3d c0 3c 52 2d b1 bd e8 88 03 be
       0.09184246 0.023467004 -0.08651222 -0.12845194
0002d0 c2 15 d4 bd 50 4b 95 3c 6d d0 0d 3e 77 4b e7 bd
       -0.103557125 0.018224388 0.1384904 -0.11293691
0002e0 36 5e 83 3d 38 9a f1 3c aa eb db bd 20 fd 01 be
       0.06414454 0.029492483 -0.10738309 -0.12694216
0002f0 08 e6 b9 bd 45 8f 10 3e c0 ee 94 3c f3 aa 22 be
       -0.09077078 0.14117153 0.018180251 -0.15885524
000300 60 33 ba be 75 7b be 3e 27 8a 62 3e 61 1f 06 bf
       -0.3636732 0.37203565 0.22123013 -0.5239163
000310 48 a7 d0 be b3 35 bc 3e e2 57 0b bf 9b 14 11 3f
       -0.40752625 0.3675972 -0.54430974 0.56672066
000320 cc 9b a2 3e 5a 75 2f 3e 72 95 e8 3e e5 87 ad bd
       0.3175949 0.1713461 0.45426518 -0.084731854
000330 ea 2a e1 be 77 42 14 be 2a bf 0a bf 99 55 2d 3e
       -0.43978053 -0.1447848 -0.54197943 0.16927184
000340 3b 3e 2a 3f 0b 5e e0 3e 79 09 10 bf 75 f2 a0 3e
       0.66501206 0.4382175 -0.56264454 0.3143498
000350 6c 18 98 3d 74 76 ec be 5b bf a8 be d1 10 47 3e
       0.07426533 -0.46184123 -0.32958493 0.19440009
000360 1e dc c5 be 22 a2 22 3e 1b e8 19 3f a7 98 ec 3d
       -0.386445 0.15882161 0.6011979 0.115525536
000370 37 2f 16 3f 34 6f 29 3f 97 65 50 bf e8 f1 2f be
       0.58665794 0.6618531 -0.81405014 -0.17182124
000380 b9 2f 0e bf ac 29 02 3f ae 2d 04 bc 62 13 44 bf
       -0.5554157 0.50844836 -0.0080675315 -0.76592076
000390 7f e8 c8 be 21 f5 09 3e 0e d9 0a be 5c 8a f8 3e
       -0.3923988 0.13472416 -0.13559362 0.4854306
0003a0 8b 80 9d 3e 8f 1f c1 3e fc 40 c1 3e 0f a6 8d bd
       0.30762133 0.3771939 0.37744892 -0.06916439
0003b0 59 84 ca be 3b c6 62 3c 33 3d 01 bf 81 bf d5 3e
       -0.39554098 0.013841207 -0.5048401 0.41747668
0003c0 82 50 bb 3e c8 4a e3 3e 27 1e 23 bf bf 81 a7 3e
       0.3658486 0.4439299 -0.63717884 0.32716176
0003d0 7a 05 c5 3e 72 31 b2 be 3a 47 b6 be 02 8d a3 3e
       0.3848074 -0.3480335 -0.35601217 0.31943518
0003e0 15 16 85 be c2 7d a9 3e 4f c7 23 3f 9f c9 1f 3e
       -0.2599341 0.33103758 0.63975996 0.15604256
0003f0 7e d6 1e 3f 97 8e 13 3f 96 e3 4d bf 40 a4 51 3d
       0.6204604 0.5763945 -0.80425394 0.05118203

fc2.bias f4 [50]
000000 88 42 e4 3e e7 d0 00 3f 54 de 6b 3e 0f cf bb 3e
       0.4458201 0.5031876 0.2303403 0.3668141
000010 5e 30 91 3e 0c 10 7c bd 5a e9 d6 3e ed 5f c0 3e
       0.28357214 -0.06153874 0.41974908 0.37573186
000020 49 52 34 be 17 e1 1e 3e 97 e7 0d bd 13 f3 e7 3c
       -0.17609514 0.15515552 -0.03464469 0.028314149
000030 dd 44 95 3e 42 9c 03 3e fc 86 ba 3e 39 07 2e be
       0.291541 0.12852576 0.3643111 -0.16994943
000040 b5 28 22 3e 70 87 75 3e 38 7f 9f 3e a6 d1 35 3e
       0.15835841 0.23977447 0.31151748 0.17755756
000050 42 51 8a 3e d2 16 12 be 51 5f a7 3e d7 d9 87 3e
       0.2701512 -0.14266518 0.32689908 0.26533386
000060 15 f9 5f 3e 85 77 a8 3e 2f 4c 1b 3d ad eb 1e be
       0.21872361 0.32903686 0.03791445 -0.1551959
000070 c6 c8 46 3e a9 cc 34 3e f9 fc 92 3e 5d 4b 6d 3e
       0.19412526 0.17656197 0.28708628 0.2317328
000080 d5 ef 11 3e 59 5f 84 3e d9 7e 70 3e 23 ff ae 3e
       0.14251645 0.25853994 0.23485889 0.3417903
000090 0a c0 89 3d 4d 0f f6 3d 9c 9d 86 3e a6 a4 14 bd
       0.06726082 0.12014637 0.2629212 -0.036289833
0000a0 4a 8e 6a 3e 18 a8 c5 3e 6c 41 ce 3e a2 ae cc 3e
       0.22905841 0.38604808 0.40284288 0.39976984
0000b0 3c c3 7f 3a 95 63 83 bb 90 c5 31 be c8 61 eb 3c
       0.000975657 -0.004009674 -0.1736052 0.02873315
0000c0 4c 9a 1b be 29 1c 14 be
       -0.15195578 -0.14463867

fc3.weight f4 [2, 50]
000000 ea e6 c3 3e 07 e8 a2 3e 96 66 a0 3e 42 e2 fc 3e
       0.3826211 0.31817648 0.31328267 0.4939137
000010 8a 6a cb be b7 b4 01 be 04 2b 04 3f 22 99 b3 3e
       -0.3972972 -0.12666593 0.51628137 0.3507777
000020 ea de c3 3e e5 29 e9 3e 66 33 02 bf 23 25 0a 3e
       0.38256007 0.45539775 -0.5085968 0.13490729
000030 ad 54 04 3f db 8b 26 bf 1e 55 0e 3f c0 75 4f be
       0.51691705 -0.6505715 0.5559863 -0.20259762
000040 31 0a e5 3e 08 74 ac 3e 5f fd f7 3e c7 f3 0f 3f
       0.44734338 0.33682275 0.48435494 0.5623135
000050 12 5f 77 bf 6d b9 d8 3e 45 c2 bb 3e c6 50 c9 3e
       -0.9662944 0.4232897 0.36671653 0.39319438
000060 f2 1c d8 3e e5 93 d9 3e 3f 41 c2 bd 96 6d 82 bd
       0.42209584 0.42495647 -0.09485101 -0.06368558
000070 6f 7c 05 3f 96 f4 bd 3e 16 1e 23 3e 47 1f e3 3e
       0.52142996 0.37100667 0.15929446 0.443598
000080 7e 04 80 3d b1 cb 98 3e d3 8e 1b bf a8 e4 1e 3f
       0.06250857 0.29842904 -0.6076481 0.6206765
000090 83 61 8d 3e c5 9d ce 3e cb f0 21 bf 9d 84 2b be
       0.27613458 0.40354744 -0.63258046 -0.16749807
0000a0 03 92 21 be b3 c8 eb 3e 12 e3 db 3e 54 2d d7 3e
       -0.15778355 0.4605156 0.42946678 0.4202677
0000b0 eb d1 51 bd 65 6a f3 bd cc e4 81 3d 03 65 7e be
       -0.051225584 -0.118855275 0.06342468 -0.2484322
0000c0 5c d1 8d 3f be 09 73 3c f7 0c f4 3e 06 a5 04 3f
       1.1079516 0.014833866 0.4766614 0.51814306
0000d0 ea b0 f7 3e ba 4e c5 3e 15 00 89 bd 48 ad c9 bd
       0.48377162 0.38536626 -0.06689469 -0.09847504
0000e0 23 55 23 3f 76 14 e7 3e 18 93 1e 3c 21 a0 c5 3e
       0.63801783 0.45132798 0.009678625 0.3859873
0000f0 8e ab d3 be 9a 72 41 bd 65 3b b7 3e 3b 03 ba be
       -0.41341823 -0.047228433 0.35787502 -0.3633059
000100 03 e4 17 3f 84 47 10 bf 8a 26 bb 3e d1 1d f2 3e
       0.59332293 -0.56359124 0.3655284 0.47288373
000110 59 5c 1b 3f df 6d 22 3f ab be f7 be e3 1b a5 3f
       0.60687786 0.634489 -0.48387656 1.2899135
000120 ff 12 b6 3e 0f 7a f3 3e 80 e1 c8 3e c8 ba c0 3e
       0.35561368 0.4755406 0.39234543 0.37642503
000130 de 5c 1a 3a 39 bf a5 bd a3 95 aa bd 37 9e 98 bd
       0.0005888472 -0.080931135 -0.08329322 -0.07452052
000140 c6 7a c5 be 7f ed 9f 3e ea bf ed 3d 1f dd 4f be
       -0.3857023 0.31235883 0.1160887 -0.20299195
000150 47 0c bb bd 70 df fa 3e a4 ab 00 3f 30 b7 c2 3e
       -0.09133201 0.48998594 0.502619 0.38030386
000160 0f 55 93 be 1d 93 04 bf e8 15 f8 be e9 d7 b7 3e
       -0.28775832 -0.5178698 -0.48454213 0.35906914
000170 6e 79 bf 3e 0d 6e f3 3e 80 b2 c7 3e f3 60 4a bb
       0.3739733 0.475449 0.39003372 -0.003088054
000180 64 11 ac 3d 58 b6 b6 be 3b 53 c4 bc 5a a2 e3 3b
       0.084017545 -0.35685992 -0.023965469 0.006946844

fc3.bias f4 [2]
000000 0d 57 42 3e ce 52 48 3e
       0.1897852 0.19562837
